…
2020-11-01 22:41:35.806726: I tensorflow/compiler/xla/service/service.cc:168] XLA service 0x55ba63af0870 initialized for platform Host (this does not guarantee that XLA will be used). Devices:
2020-11-01 22:41:35.806797: I tensorflow/compiler/xla/service/service.cc:176]   StreamExecutor device (0): Host, Default Version
2020-11-01 22:41:35.807018: I tensorflow/core/common_runtime/process_util.cc:147] Creating new thread pool with default inter op setting: 2. Tune using inter_op_parallelism_threads for best performance.
Model: "sequential"
_________________________________________________________________
Layer (type)                 Output Shape              Param #   
=================================================================
conv2d (Conv2D)              (None, 30, 30, 32)        896       
_________________________________________________________________
max_pooling2d (MaxPooling2D) (None, 15, 15, 32)        0         
_________________________________________________________________
dense (Dense)                (None, 15, 15, 256)       8448      
_________________________________________________________________
flatten (Flatten)            (None, 57600)             0         
_________________________________________________________________
dense_1 (Dense)              (None, 10)                576010    
=================================================================
Total params: 585,354
Trainable params: 585,354
Non-trainable params: 0
_________________________________________________________________
Epoch 1/70
1563/1563 [==============================] - 142s 91ms/step - loss: 1.8891 - accuracy: 0.3317 - val_loss: 1.6759 - val_accuracy: 0.4078
Epoch 2/70
1563/1563 [==============================] - 133s 85ms/step - loss: 1.5637 - accuracy: 0.4504 - val_loss: 1.4949 - val_accuracy: 0.4694
…
Negative dimension size caused by subtracting 3 from 1 for '{{node conv2d_14/Conv2D}} = Conv2D[T=DT_FLOAT, data_format="NHWC", dilations=[1, 1, 1, 1], explicit_paddings=[], padding="VALID", strides=[1, 1, 1, 1], use_cudnn_on_gpu=true](conv2d_13/Identity, conv2d_14/Conv2D/ReadVariableOp)' with input shapes: [?,1,1,256], [3,3,256,256].

FENOTIPO: (((conv*1)pool)*3)fc*0

Model: "sequential_3"
_________________________________________________________________
Layer (type)                 Output Shape              Param #   
=================================================================
conv2d_15 (Conv2D)           (None, 30, 30, 32)        896       
_________________________________________________________________
max_pooling2d_6 (MaxPooling2 (None, 15, 15, 32)        0         
_________________________________________________________________
conv2d_16 (Conv2D)           (None, 13, 13, 32)        9248      
_________________________________________________________________
max_pooling2d_7 (MaxPooling2 (None, 6, 6, 32)          0         
_________________________________________________________________
conv2d_17 (Conv2D)           (None, 4, 4, 64)          18496     
_________________________________________________________________
max_pooling2d_8 (MaxPooling2 (None, 2, 2, 64)          0         
_________________________________________________________________
flatten_1 (Flatten)          (None, 256)               0         
_________________________________________________________________
dense_2 (Dense)              (None, 10)                2570      
=================================================================
Total params: 31,210
Trainable params: 31,210
Non-trainable params: 0
_________________________________________________________________
Epoch 1/70
1563/1563 [==============================] - 72s 46ms/step - loss: 2.1059 - accuracy: 0.2214 - val_loss: 1.9620 - val_accuracy: 0.2916
Epoch 2/70
1563/1563 [==============================] - 69s 44ms/step - loss: 1.8321 - accuracy: 0.3408 - val_loss: 2.1061 - val_accuracy: 0.2734
…
1563/1563 [==============================] - 66s 42ms/step - loss: 1.0356 - accuracy: 0.6474 - val_loss: 1.1364 - val_accuracy: 0.6291
Epoch 70/70
1563/1563 [==============================] - 67s 43ms/step - loss: 1.0323 - accuracy: 0.6480 - val_loss: 1.1765 - val_accuracy: 0.6074
63/63 - 1s - loss: 1.1838 - accuracy: 0.6005

FENOTIPO: (((conv*3))*3)fc*0

Model: "sequential_4"
_________________________________________________________________
Layer (type)                 Output Shape              Param #   
=================================================================
conv2d_18 (Conv2D)           (None, 30, 30, 32)        896       
_________________________________________________________________
conv2d_19 (Conv2D)           (None, 28, 28, 32)        9248      
_________________________________________________________________
conv2d_20 (Conv2D)           (None, 26, 26, 64)        18496     
_________________________________________________________________
conv2d_21 (Conv2D)           (None, 24, 24, 64)        36928     
_________________________________________________________________
conv2d_22 (Conv2D)           (None, 22, 22, 128)       73856     
_________________________________________________________________
conv2d_23 (Conv2D)           (None, 20, 20, 128)       147584    
_________________________________________________________________
conv2d_24 (Conv2D)           (None, 18, 18, 256)       295168    
_________________________________________________________________
conv2d_25 (Conv2D)           (None, 16, 16, 256)       590080    
_________________________________________________________________
conv2d_26 (Conv2D)           (None, 14, 14, 512)       1180160   
_________________________________________________________________
flatten_2 (Flatten)          (None, 100352)            0         
_________________________________________________________________
dense_3 (Dense)              (None, 10)                1003530   
=================================================================
Total params: 3,355,946
Trainable params: 3,355,946
Non-trainable params: 0
_________________________________________________________________
Epoch 1/70
1563/1563 [==============================] - 3909s 3s/step - loss: 2.0239 - accuracy: 0.2586 - val_loss: 1.9523 - val_accuracy: 0.2905
Epoch 2/70
1563/1563 [==============================] - 3903s 2s/step - loss: 1.6955 - accuracy: 0.3857 - val_loss: 1.5660 - val_accuracy: 0.4289
…
